…
[38m    - 1200
[38m  DETECTIONS_PER_IMAGE: 300
[38m  DO_POSTPROCESS: true
[38m  EVAL_PERIOD: 5000
[38m  EXPECTED_RESULTS: []
[38m  IMS_PER_BATCH: 2
[38m  KEYPOINT_OKS_SIGMAS: []
[38m  MASK_THR_BINARY: 0.5
[38m  PRECISE_BN:
[38m    ENABLED: false
[38m    NUM_ITER: 200
[38mVERSION: 2
[38mVIS_PERIOD: 0
[32m[10/21 20:02:29 detectron2]: [39mFull config saved to ./output/full_tune_tiny/config.yaml
[32m[10/21 20:02:29 d2.utils.env]: [39mUsing a generated random seed 31592045
[32m[10/21 20:02:30 detectron2]: [39mModel:
SamDetector(
  (backbone): SAMVitDet(
    (fpn1): Sequential(
      (0): ConvTranspose2d(256, 256, kernel_size=(2, 2), stride=(2, 2))
      (1): Norm2d(
        (ln): LayerNorm((256,), eps=1e-06, elementwise_affine=True)
      )
      (2): GELU()
      (3): ConvTranspose2d(256, 256, kernel_size=(2, 2), stride=(2, 2))
    )
    (fpn2): Sequential(
      (0): ConvTranspose2d(256, 256, kernel_size=(2, 2), stride=(2, 2))
    )
    (fpn3): Identity()
    (fpn4): MaxPool2d(kernel_size=2, stride=2, padding=0, dilation=1, ceil_mode=False)
  )
  (proposal_generator): RPN(
    (rpn_head): StandardRPNHead(
      (conv): Conv2d(
        256, 256, kernel_size=(3, 3), stride=(1, 1), padding=(1, 1)
        (activation): ReLU()
      )
      (objectness_logits): Conv2d(256, 3, kernel_size=(1, 1), stride=(1, 1))
      (anchor_deltas): Conv2d(256, 12, kernel_size=(1, 1), stride=(1, 1))
    )
    (anchor_generator): DefaultAnchorGenerator(
      (cell_anchors): BufferList()
    )
  )
  (roi_heads): samAnchorPromptRoiHeads(
    (box_pooler): ROIPooler(
      (level_poolers): ModuleList(
        (0): ROIAlign(output_size=(7, 7), spatial_scale=0.25, sampling_ratio=0, aligned=True)
        (1): ROIAlign(output_size=(7, 7), spatial_scale=0.125, sampling_ratio=0, aligned=True)
        (2): ROIAlign(output_size=(7, 7), spatial_scale=0.0625, sampling_ratio=0, aligned=True)
        (3): ROIAlign(output_size=(7, 7), spatial_scale=0.03125, sampling_ratio=0, aligned=True)
      )
    )
    (box_head): FastRCNNConvFCHead(
      (flatten): Flatten(start_dim=1, end_dim=-1)
      (fc1): Linear(in_features=12544, out_features=1024, bias=True)
      (fc_relu1): ReLU()
      (fc2): Linear(in_features=1024, out_features=1024, bias=True)
      (fc_relu2): ReLU()
    )
    (box_predictor): SamRCNNOutputLayers(
      (cls_score): Linear(in_features=1024, out_features=81, bias=True)
      (bbox_pred): Linear(in_features=1024, out_features=320, bias=True)
    )
    (mask_pooler): ROIPooler(
      (level_poolers): ModuleList(
        (0): ROIAlign(output_size=(14, 14), spatial_scale=0.25, sampling_ratio=0, aligned=True)
        (1): ROIAlign(output_size=(14, 14), spatial_scale=0.125, sampling_ratio=0, aligned=True)
        (2): ROIAlign(output_size=(14, 14), spatial_scale=0.0625, sampling_ratio=0, aligned=True)
        (3): ROIAlign(output_size=(14, 14), spatial_scale=0.03125, sampling_ratio=0, aligned=True)
      )
    )
    (mask_head): samMaskHead(
      (point_emb): Sequential(
        (0): Conv2d(256, 256, kernel_size=(3, 3), stride=(2, 2), padding=(1, 1))
        (1): BatchNorm2d(256, eps=1e-05, momentum=0.1, affine=True, track_running_stats=True)
        (2): ReLU(inplace=True)
        (3): Flatten(start_dim=1, end_dim=-1)
        (4): Linear(in_features=12544, out_features=256, bias=True)
        (5): ReLU(inplace=True)
        (6): Linear(in_features=256, out_features=256, bias=True)
        (7): ReLU(inplace=True)
        (8): Linear(in_features=256, out_features=2048, bias=True)
      )
    )
    (generator_pe): SinePositionalEncoding(num_feats=128, temperature=10000, normalize=True, scale=6.283185307179586, eps=1e-06)
  )
  (sam): Sam(
    (image_encoder): TinyViT(
      (patch_embed): PatchEmbed(
        (seq): Sequential(
          (0): Conv2d_BN(
            (c): Conv2d(3, 32, kernel_size=(3, 3), stride=(2, 2), padding=(1, 1), bias=False)
            (bn): BatchNorm2d(32, eps=1e-05, momentum=0.1, affine=True, track_running_stats=True)
          )
          (1): GELU()
          (2): Conv2d_BN(
            (c): Conv2d(32, 64, kernel_size=(3, 3), stride=(2, 2), padding=(1, 1), bias=False)
            (bn): BatchNorm2d(64, eps=1e-05, momentum=0.1, affine=True, track_running_stats=True)
          )
        )
      )
      (layers): ModuleList(
        (0): ConvLayer(
          (blocks): ModuleList(
            (0): MBConv(
              (conv1): Conv2d_BN(
                (c): Conv2d(64, 256, kernel_size=(1, 1), stride=(1, 1), bias=False)
                (bn): BatchNorm2d(256, eps=1e-05, momentum=0.1, affine=True, track_running_stats=True)
              )
              (act1): GELU()
              (conv2): Conv2d_BN(
                (c): Conv2d(256, 256, kernel_size=(3, 3), stride=(1, 1), padding=(1, 1), groups=256, bias=False)
                (bn): BatchNorm2d(256, eps=1e-05, momentum=0.1, affine=True, track_running_stats=True)
              )
              (act2): GELU()
              (conv3): Conv2d_BN(
                (c): Conv2d(256, 64, kernel_size=(1, 1), stride=(1, 1), bias=False)
                (bn): BatchNorm2d(64, eps=1e-05, momentum=0.1, affine=True, track_running_stats=True)
              )
              (act3): GELU()
              (drop_path): Identity()
            )
            (1): MBConv(
              (conv1): Conv2d_BN(
                (c): Conv2d(64, 256, kernel_size=(1, 1), stride=(1, 1), bias=False)
                (bn): BatchNorm2d(256, eps=1e-05, momentum=0.1, affine=True, track_running_stats=True)
              )
              (act1): GELU()
              (conv2): Conv2d_BN(
                (c): Conv2d(256, 256, kernel_size=(3, 3), stride=(1, 1), padding=(1, 1), groups=256, bias=False)
                (bn): BatchNorm2d(256, eps=1e-05, momentum=0.1, affine=True, track_running_stats=True)
              )
              (act2): GELU()
              (conv3): Conv2d_BN(
                (c): Conv2d(256, 64, kernel_size=(1, 1), stride=(1, 1), bias=False)
                (bn): BatchNorm2d(64, eps=1e-05, momentum=0.1, affine=True, track_running_stats=True)
              )
              (act3): GELU()
              (drop_path): Identity()
            )
          )
          (downsample): PatchMerging(
            (act): GELU()
            (conv1): Conv2d_BN(
              (c): Conv2d(64, 128, kernel_size=(1, 1), stride=(1, 1), bias=False)
              (bn): BatchNorm2d(128, eps=1e-05, momentum=0.1, affine=True, track_running_stats=True)
            )
            (conv2): Conv2d_BN(
              (c): Conv2d(128, 128, kernel_size=(3, 3), stride=(2, 2), padding=(1, 1), groups=128, bias=False)
              (bn): BatchNorm2d(128, eps=1e-05, momentum=0.1, affine=True, track_running_stats=True)
            )
            (conv3): Conv2d_BN(
              (c): Conv2d(128, 128, kernel_size=(1, 1), stride=(1, 1), bias=False)
              (bn): BatchNorm2d(128, eps=1e-05, momentum=0.1, affine=True, track_running_stats=True)
            )
          )
        )
        (1): BasicLayer(
          dim=128, input_resolution=(128, 128), depth=2
          (blocks): ModuleList(
            (0): TinyViTBlock(
              dim=128, input_resolution=(128, 128), num_heads=4, window_size=7, mlp_ratio=4.0
              (drop_path): Identity()
              (attn): Attention(
                (norm): LayerNorm((128,), eps=1e-05, elementwise_affine=True)
                (qkv): Linear(in_features=128, out_features=384, bias=True)
                (proj): Linear(in_features=128, out_features=128, bias=True)
              )
              (mlp): Mlp(
                (norm): LayerNorm((128,), eps=1e-05, elementwise_affine=True)
                (fc1): Linear(in_features=128, out_features=512, bias=True)
                (fc2): Linear(in_features=512, out_features=128, bias=True)
                (act): GELU()
                (drop): Dropout(p=0.0, inplace=False)
              )
              (local_conv): Conv2d_BN(
                (c): Conv2d(128, 128, kernel_size=(3, 3), stride=(1, 1), padding=(1, 1), groups=128, bias=False)
                (bn): BatchNorm2d(128, eps=1e-05, momentum=0.1, affine=True, track_running_stats=True)
              )
            )
            (1): TinyViTBlock(
              dim=128, input_resolution=(128, 128), num_heads=4, window_size=7, mlp_ratio=4.0
              (drop_path): Identity()
              (attn): Attention(
                (norm): LayerNorm((128,), eps=1e-05, elementwise_affine=True)
                (qkv): Linear(in_features=128, out_features=384, bias=True)
                (proj): Linear(in_features=128, out_features=128, bias=True)
              )
              (mlp): Mlp(
                (norm): LayerNorm((128,), eps=1e-05, elementwise_affine=True)
                (fc1): Linear(in_features=128, out_features=512, bias=True)
                (fc2): Linear(in_features=512, out_features=128, bias=True)
                (act): GELU()
                (drop): Dropout(p=0.0, inplace=False)
              )
              (local_conv): Conv2d_BN(
                (c): Conv2d(128, 128, kernel_size=(3, 3), stride=(1, 1), padding=(1, 1), groups=128, bias=False)
                (bn): BatchNorm2d(128, eps=1e-05, momentum=0.1, affine=True, track_running_stats=True)
              )
            )
          )
          (downsample): PatchMerging(
            (act): GELU()
            (conv1): Conv2d_BN(
              (c): Conv2d(128, 160, kernel_size=(1, 1), stride=(1, 1), bias=False)
              (bn): BatchNorm2d(160, eps=1e-05, momentum=0.1, affine=True, track_running_stats=True)
            )
            (conv2): Conv2d_BN(
              (c): Conv2d(160, 160, kernel_size=(3, 3), stride=(2, 2), padding=(1, 1), groups=160, bias=False)
              (bn): BatchNorm2d(160, eps=1e-05, momentum=0.1, affine=True, track_running_stats=True)
            )
            (conv3): Conv2d_BN(
              (c): Conv2d(160, 160, kernel_size=(1, 1), stride=(1, 1), bias=False)
              (bn): BatchNorm2d(160, eps=1e-05, momentum=0.1, affine=True, track_running_stats=True)
            )
          )
        )
        (2): BasicLayer(
          dim=160, input_resolution=(64, 64), depth=6
          (blocks): ModuleList(
            (0): TinyViTBlock(
              dim=160, input_resolution=(64, 64), num_heads=5, window_size=14, mlp_ratio=4.0
              (drop_path): Identity()
              (attn): Attention(
                (norm): LayerNorm((160,), eps=1e-05, elementwise_affine=True)
                (qkv): Linear(in_features=160, out_features=480, bias=True)
                (proj): Linear(in_features=160, out_features=160, bias=True)
              )
              (mlp): Mlp(
                (norm): LayerNorm((160,), eps=1e-05, elementwise_affine=True)
                (fc1): Linear(in_features=160, out_features=640, bias=True)
                (fc2): Linear(in_features=640, out_features=160, bias=True)
                (act): GELU()
                (drop): Dropout(p=0.0, inplace=False)
              )
              (local_conv): Conv2d_BN(
                (c): Conv2d(160, 160, kernel_size=(3, 3), stride=(1, 1), padding=(1, 1), groups=160, bias=False)
                (bn): BatchNorm2d(160, eps=1e-05, momentum=0.1, affine=True, track_running_stats=True)
              )
            )
            (1): TinyViTBlock(
              dim=160, input_resolution=(64, 64), num_heads=5, window_size=14, mlp_ratio=4.0
              (drop_path): Identity()
              (attn): Attention(
                (norm): LayerNorm((160,), eps=1e-05, elementwise_affine=True)
                (qkv): Linear(in_features=160, out_features=480, bias=True)
                (proj): Linear(in_features=160, out_features=160, bias=True)
              )
              (mlp): Mlp(
                (norm): LayerNorm((160,), eps=1e-05, elementwise_affine=True)
                (fc1): Linear(in_features=160, out_features=640, bias=True)
                (fc2): Linear(in_features=640, out_features=160, bias=True)
                (act): GELU()
                (drop): Dropout(p=0.0, inplace=False)
              )
              (local_conv): Conv2d_BN(
                (c): Conv2d(160, 160, kernel_size=(3, 3), stride=(1, 1), padding=(1, 1), groups=160, bias=False)
                (bn): BatchNorm2d(160, eps=1e-05, momentum=0.1, affine=True, track_running_stats=True)
              )
            )
            (2): TinyViTBlock(
              dim=160, input_resolution=(64, 64), num_heads=5, window_size=14, mlp_ratio=4.0
              (drop_path): Identity()
              (attn): Attention(
                (norm): LayerNorm((160,), eps=1e-05, elementwise_affine=True)
                (qkv): Linear(in_features=160, out_features=480, bias=True)
                (proj): Linear(in_features=160, out_features=160, bias=True)
              )
              (mlp): Mlp(
                (norm): LayerNorm((160,), eps=1e-05, elementwise_affine=True)
                (fc1): Linear(in_features=160, out_features=640, bias=True)
                (fc2): Linear(in_features=640, out_features=160, bias=True)
                (act): GELU()
                (drop): Dropout(p=0.0, inplace=False)
              )
              (local_conv): Conv2d_BN(
                (c): Conv2d(160, 160, kernel_size=(3, 3), stride=(1, 1), padding=(1, 1), groups=160, bias=False)
                (bn): BatchNorm2d(160, eps=1e-05, momentum=0.1, affine=True, track_running_stats=True)
              )
            )
            (3): TinyViTBlock(
              dim=160, input_resolution=(64, 64), num_heads=5, window_size=14, mlp_ratio=4.0
              (drop_path): Identity()
              (attn): Attention(
                (norm): LayerNorm((160,), eps=1e-05, elementwise_affine=True)
                (qkv): Linear(in_features=160, out_features=480, bias=True)
                (proj): Linear(in_features=160, out_features=160, bias=True)
              )
              (mlp): Mlp(
                (norm): LayerNorm((160,), eps=1e-05, elementwise_affine=True)
                (fc1): Linear(in_features=160, out_features=640, bias=True)
                (fc2): Linear(in_features=640, out_features=160, bias=True)
                (act): GELU()
                (drop): Dropout(p=0.0, inplace=False)
              )
              (local_conv): Conv2d_BN(
                (c): Conv2d(160, 160, kernel_size=(3, 3), stride=(1, 1), padding=(1, 1), groups=160, bias=False)
                (bn): BatchNorm2d(160, eps=1e-05, momentum=0.1, affine=True, track_running_stats=True)
              )
            )
            (4): TinyViTBlock(
              dim=160, input_resolution=(64, 64), num_heads=5, window_size=14, mlp_ratio=4.0
              (drop_path): Identity()
              (attn): Attention(
                (norm): LayerNorm((160,), eps=1e-05, elementwise_affine=True)
                (qkv): Linear(in_features=160, out_features=480, bias=True)
                (proj): Linear(in_features=160, out_features=160, bias=True)
              )
              (mlp): Mlp(
                (norm): LayerNorm((160,), eps=1e-05, elementwise_affine=True)
                (fc1): Linear(in_features=160, out_features=640, bias=True)
                (fc2): Linear(in_features=640, out_features=160, bias=True)
                (act): GELU()
                (drop): Dropout(p=0.0, inplace=False)
              )
              (local_conv): Conv2d_BN(
                (c): Conv2d(160, 160, kernel_size=(3, 3), stride=(1, 1), padding=(1, 1), groups=160, bias=False)
                (bn): BatchNorm2d(160, eps=1e-05, momentum=0.1, affine=True, track_running_stats=True)
              )
            )
            (5): TinyViTBlock(
              dim=160, input_resolution=(64, 64), num_heads=5, window_size=14, mlp_ratio=4.0
              (drop_path): Identity()
              (attn): Attention(
                (norm): LayerNorm((160,), eps=1e-05, elementwise_affine=True)
                (qkv): Linear(in_features=160, out_features=480, bias=True)
                (proj): Linear(in_features=160, out_features=160, bias=True)
              )
              (mlp): Mlp(
                (norm): LayerNorm((160,), eps=1e-05, elementwise_affine=True)
                (fc1): Linear(in_features=160, out_features=640, bias=True)
                (fc2): Linear(in_features=640, out_features=160, bias=True)
                (act): GELU()
                (drop): Dropout(p=0.0, inplace=False)
              )
              (local_conv): Conv2d_BN(
                (c): Conv2d(160, 160, kernel_size=(3, 3), stride=(1, 1), padding=(1, 1), groups=160, bias=False)
                (bn): BatchNorm2d(160, eps=1e-05, momentum=0.1, affine=True, track_running_stats=True)
              )
            )
          )
          (downsample): PatchMerging(
            (act): GELU()
            (conv1): Conv2d_BN(
              (c): Conv2d(160, 320, kernel_size=(1, 1), stride=(1, 1), bias=False)
              (bn): BatchNorm2d(320, eps=1e-05, momentum=0.1, affine=True, track_running_stats=True)
            )
            (conv2): Conv2d_BN(
              (c): Conv2d(320, 320, kernel_size=(3, 3), stride=(1, 1), padding=(1, 1), groups=320, bias=False)
              (bn): BatchNorm2d(320, eps=1e-05, momentum=0.1, affine=True, track_running_stats=True)
            )
            (conv3): Conv2d_BN(
              (c): Conv2d(320, 320, kernel_size=(1, 1), stride=(1, 1), bias=False)
              (bn): BatchNorm2d(320, eps=1e-05, momentum=0.1, affine=True, track_running_stats=True)
            )
          )
        )
        (3): BasicLayer(
          dim=320, input_resolution=(64, 64), depth=2
          (blocks): ModuleList(
            (0): TinyViTBlock(
              dim=320, input_resolution=(64, 64), num_heads=10, window_size=7, mlp_ratio=4.0
              (drop_path): Identity()
              (attn): Attention(
                (norm): LayerNorm((320,), eps=1e-05, elementwise_affine=True)
                (qkv): Linear(in_features=320, out_features=960, bias=True)
                (proj): Linear(in_features=320, out_features=320, bias=True)
              )
              (mlp): Mlp(
                (norm): LayerNorm((320,), eps=1e-05, elementwise_affine=True)
                (fc1): Linear(in_features=320, out_features=1280, bias=True)
                (fc2): Linear(in_features=1280, out_features=320, bias=True)
                (act): GELU()
                (drop): Dropout(p=0.0, inplace=False)
              )
              (local_conv): Conv2d_BN(
                (c): Conv2d(320, 320, kernel_size=(3, 3), stride=(1, 1), padding=(1, 1), groups=320, bias=False)
                (bn): BatchNorm2d(320, eps=1e-05, momentum=0.1, affine=True, track_running_stats=True)
              )
            )
            (1): TinyViTBlock(
              dim=320, input_resolution=(64, 64), num_heads=10, window_size=7, mlp_ratio=4.0
              (drop_path): Identity()
              (attn): Attention(
                (norm): LayerNorm((320,), eps=1e-05, elementwise_affine=True)
                (qkv): Linear(in_features=320, out_features=960, bias=True)
                (proj): Linear(in_features=320, out_features=320, bias=True)
              )
              (mlp): Mlp(
                (norm): LayerNorm((320,), eps=1e-05, elementwise_affine=True)
                (fc1): Linear(in_features=320, out_features=1280, bias=True)
                (fc2): Linear(in_features=1280, out_features=320, bias=True)
                (act): GELU()
                (drop): Dropout(p=0.0, inplace=False)
              )
              (local_conv): Conv2d_BN(
                (c): Conv2d(320, 320, kernel_size=(3, 3), stride=(1, 1), padding=(1, 1), groups=320, bias=False)
                (bn): BatchNorm2d(320, eps=1e-05, momentum=0.1, affine=True, track_running_stats=True)
              )
            )
          )
        )
      )
      (neck): Sequential(
        (0): Conv2d(320, 256, kernel_size=(1, 1), stride=(1, 1), bias=False)
        (1): LayerNorm2d()
        (2): Conv2d(256, 256, kernel_size=(3, 3), stride=(1, 1), padding=(1, 1), bias=False)
        (3): LayerNorm2d()
      )
    )
    (prompt_encoder): PromptEncoder(
      (pe_layer): PositionEmbeddingRandom()
      (point_embeddings): ModuleList(
        (0): Embedding(1, 256)
        (1): Embedding(1, 256)
        (2): Embedding(1, 256)
        (3): Embedding(1, 256)
      )
      (not_a_point_embed): Embedding(1, 256)
      (mask_downscaling): Sequential(
        (0): Conv2d(1, 4, kernel_size=(2, 2), stride=(2, 2))
        (1): LayerNorm2d()
        (2): GELU()
        (3): Conv2d(4, 16, kernel_size=(2, 2), stride=(2, 2))
        (4): LayerNorm2d()
        (5): GELU()
        (6): Conv2d(16, 256, kernel_size=(1, 1), stride=(1, 1))
      )
      (no_mask_embed): Embedding(1, 256)
    )
    (mask_decoder): MaskDecoder(
      (transformer): TwoWayTransformer(
        (layers): ModuleList(
          (0): TwoWayAttentionBlock(
            (self_attn): Attention(
              (q_proj): Linear(in_features=256, out_features=256, bias=True)
              (k_proj): Linear(in_features=256, out_features=256, bias=True)
              (v_proj): Linear(in_features=256, out_features=256, bias=True)
              (out_proj): Linear(in_features=256, out_features=256, bias=True)
            )
            (norm1): LayerNorm((256,), eps=1e-05, elementwise_affine=True)
            (cross_attn_token_to_image): Attention(
              (q_proj): Linear(in_features=256, out_features=128, bias=True)
              (k_proj): Linear(in_features=256, out_features=128, bias=True)
              (v_proj): Linear(in_features=256, out_features=128, bias=True)
              (out_proj): Linear(in_features=128, out_features=256, bias=True)
            )
            (norm2): LayerNorm((256,), eps=1e-05, elementwise_affine=True)
            (mlp): MLPBlock(
              (lin1): Linear(in_features=256, out_features=2048, bias=True)
              (lin2): Linear(in_features=2048, out_features=256, bias=True)
              (act): ReLU()
            )
            (norm3): LayerNorm((256,), eps=1e-05, elementwise_affine=True)
            (norm4): LayerNorm((256,), eps=1e-05, elementwise_affine=True)
            (cross_attn_image_to_token): Attention(
              (q_proj): Linear(in_features=256, out_features=128, bias=True)
              (k_proj): Linear(in_features=256, out_features=128, bias=True)
              (v_proj): Linear(in_features=256, out_features=128, bias=True)
              (out_proj): Linear(in_features=128, out_features=256, bias=True)
            )
          )
          (1): TwoWayAttentionBlock(
            (self_attn): Attention(
              (q_proj): Linear(in_features=256, out_features=256, bias=True)
              (k_proj): Linear(in_features=256, out_features=256, bias=True)
              (v_proj): Linear(in_features=256, out_features=256, bias=True)
              (out_proj): Linear(in_features=256, out_features=256, bias=True)
            )
            (norm1): LayerNorm((256,), eps=1e-05, elementwise_affine=True)
            (cross_attn_token_to_image): Attention(
              (q_proj): Linear(in_features=256, out_features=128, bias=True)
              (k_proj): Linear(in_features=256, out_features=128, bias=True)
              (v_proj): Linear(in_features=256, out_features=128, bias=True)
              (out_proj): Linear(in_features=128, out_features=256, bias=True)
            )
            (norm2): LayerNorm((256,), eps=1e-05, elementwise_affine=True)
            (mlp): MLPBlock(
              (lin1): Linear(in_features=256, out_features=2048, bias=True)
              (lin2): Linear(in_features=2048, out_features=256, bias=True)
              (act): ReLU()
            )
            (norm3): LayerNorm((256,), eps=1e-05, elementwise_affine=True)
            (norm4): LayerNorm((256,), eps=1e-05, elementwise_affine=True)
            (cross_attn_image_to_token): Attention(
              (q_proj): Linear(in_features=256, out_features=128, bias=True)
              (k_proj): Linear(in_features=256, out_features=128, bias=True)
              (v_proj): Linear(in_features=256, out_features=128, bias=True)
              (out_proj): Linear(in_features=128, out_features=256, bias=True)
            )
          )
        )
        (final_attn_token_to_image): Attention(
          (q_proj): Linear(in_features=256, out_features=128, bias=True)
          (k_proj): Linear(in_features=256, out_features=128, bias=True)
          (v_proj): Linear(in_features=256, out_features=128, bias=True)
          (out_proj): Linear(in_features=128, out_features=256, bias=True)
        )
        (norm_final_attn): LayerNorm((256,), eps=1e-05, elementwise_affine=True)
      )
      (iou_token): Embedding(1, 256)
      (mask_tokens): Embedding(4, 256)
      (output_upscaling): Sequential(
        (0): ConvTranspose2d(256, 64, kernel_size=(2, 2), stride=(2, 2))
        (1): LayerNorm2d()
        (2): GELU()
        (3): ConvTranspose2d(64, 32, kernel_size=(2, 2), stride=(2, 2))
        (4): GELU()
      )
      (output_hypernetworks_mlps): ModuleList(
        (0): MLP(
          (layers): ModuleList(
            (0): Linear(in_features=256, out_features=256, bias=True)
            (1): Linear(in_features=256, out_features=256, bias=True)
            (2): Linear(in_features=256, out_features=32, bias=True)
          )
        )
        (1): MLP(
          (layers): ModuleList(
            (0): Linear(in_features=256, out_features=256, bias=True)
            (1): Linear(in_features=256, out_features=256, bias=True)
            (2): Linear(in_features=256, out_features=32, bias=True)
          )
        )
        (2): MLP(
          (layers): ModuleList(
            (0): Linear(in_features=256, out_features=256, bias=True)
            (1): Linear(in_features=256, out_features=256, bias=True)
            (2): Linear(in_features=256, out_features=32, bias=True)
          )
        )
        (3): MLP(
          (layers): ModuleList(
            (0): Linear(in_features=256, out_features=256, bias=True)
            (1): Linear(in_features=256, out_features=256, bias=True)
            (2): Linear(in_features=256, out_features=32, bias=True)
          )
        )
      )
    )
  )
)
[32m[10/21 20:02:30 d2.checkpoint.detection_checkpoint]: [39m[DetectionCheckpointer] Loading from mobile_sam.pt ...
[32m[10/21 20:02:30 fvcore.common.checkpoint]: [39m[Checkpointer] Loading from mobile_sam.pt ...
[32m[10/21 20:02:30 d2.checkpoint.c2_model_loading]: [39mFollowing weights matched with submodule sam - Total num: 168
…
